coupler/coupler_model.pt (torch, 259393 bytes, 4 tensors)

0.weight f4 [100, 320]
0	0x3e65fea5	0.2246042
1	0x3e182f25	0.14861734
2	0x3dbf54bc	0.09342334
3	0xbd832448	-0.064034045
4	0xbd6e2087	-0.05813649
5	0xbd991669	-0.074749775
6	0xbd0fa695	-0.035070974
7	0xbd8b2fd9	-0.067962356
8	0xbdff7bf5	-0.12474815
9	0xbca5c1e2	-0.020234052
10	0xbd7591a1	-0.059953336
11	0x3e7c4809	0.24636854
12	0x3da0840a	0.078376845
13	0x3aa3d0fc	0.0012498195
14	0x3db90b2f	0.09035336
15	0x3e472527	0.19447766
16	0xbd559f2a	-0.052153744
17	0xbcb56d22	-0.022146765
18	0x3ca63afd	0.0202918
19	0xbe1dcca6	-0.15410098
20	0x3d79a46c	0.06094782
21	0xbd4b0e08	-0.049573928
22	0xbd58b067	-0.052902605
23	0xbd87c428	-0.06629211
24	0x3e3d7a20	0.18503618
25	0x3d70392f	0.058648285
26	0xbb40eb14	-0.0029436992
27	0xbda813d7	-0.08206909
28	0x3d7e6789	0.062110458
29	0x3dd6c2ee	0.10486399
30	0xbe1c50eb	-0.15265243
31	0x3d1466bd	0.03623079
32	0x3c9b5d51	0.018965395
33	0xbe68378f	-0.22677444
34	0xbc9e9e20	-0.01936251
35	0x3ba32eaf	0.0049799304
36	0x3cfdf278	0.030999407
37	0xbde44894	-0.11146656
38	0x3dde338b	0.10849675
39	0x3dbd474d	0.09242115
40	0xbd72a885	-0.059242744
41	0xbe2bd99a	-0.16782227
42	0x3be2b18a	0.006918137
43	0x3dbd6c52	0.09249176
44	0xbde43e04	-0.11144641
45	0xbe93eb20	-0.28890324
46	0x3defc195	0.11706845
47	0xbe0f95c8	-0.14021981
48	0xbdc38e3b	-0.09548613
49	0xbd76e436	-0.060276233
50	0xbe7bb636	-0.24581227
51	0xbceecb31	-0.029149624
52	0x3db03829	0.08604462
53	0xbe444cb2	-0.19169882
54	0x3dc81e09	0.09771354
55	0xbd41db45	-0.047328252
56	0xbcba46cb	-0.022738835
57	0x3d1c4564	0.038152114
58	0xbdb7b756	-0.089705154
59	0xbda4ea6e	-0.080525264
60	0x3d3b3783	0.045707237
61	0x3eae99b9	0.34101656
62	0xbe19e878	-0.15030086
63	0x3d191662	0.03737486
64	0xbe416f9a	-0.18890229
65	0x3dcccaa3	0.099995874
66	0xbda59b17	-0.08086222
67	0xbc9b09a9	-0.018925505
68	0x3ae46492	0.0017424992
69	0x3da30628	0.079601586
70	0xbe72278f	-0.23647903
71	0x3e915562	0.28385454
72	0x3dd401da	0.10351916
73	0xbd9e8813	-0.07740798
74	0xbe7a251d	-0.2442822
75	0xbb6c3e6e	-0.0036047953
76	0xbcca1d05	-0.02467204
77	0xbe04dc06	-0.12974557
78	0xbdc16327	-0.0944274
79	0xbb204e65	-0.002446079
80	0xbd8e9c49	-0.06963403
81	0x3dc069cd	0.0939518
82	0x3cf2bdfb	0.029631605
83	0x3e9fa617	0.31181404
84	0xbde12329	-0.109930344
85	0xbae37726	-0.0017354235
86	0x3b1edfee	0.002424236
87	0x3d25e7b2	0.040504165
88	0xbdbe306b	-0.09286579
89	0xbddb9df3	-0.10723486
90	0xbbd8558f	-0.0066019963
91	0x3c29b781	0.010358692
92	0x3db001da	0.08594103
93	0xbce893d0	-0.028390795
94	0xbe147c25	-0.14500482
95	0x3e6b793c	0.22995466
96	0x3e129618	0.14315069
97	0x3e5bb74a	0.21456638
98	0x3d29af2c	0.041426823
99	0xbd052693	-0.03250749
100	0x3dd4bcf2	0.10387601
101	0x3d30953a	0.043111064
102	0x3dc46c39	0.09590954
103	0x3dde744b	0.10862025
104	0xbd111cfc	-0.035428032
105	0xbe69f0ef	-0.22845815
106	0x3d2a8261	0.041628245
107	0xbd7bd43c	-0.0614817
108	0x3afde746	0.0019371293
109	0x3d2cee70	0.04221958
110	0xbd6abffb	-0.057311993
111	0x3d1889f5	0.03724094
112	0xbcfffac3	-0.031247502
113	0xbdec0256	-0.11523883
114	0x3c50128f	0.012699737
115	0x3dd7ea9e	0.105427966
116	0xbe2ae143	-0.16687493
117	0xbb269914	-0.0025420832
118	0xbe964f50	-0.29357386
119	0xbd0a5232	-0.033769794
120	0xbd973c74	-0.073845774
121	0x3d7a77d2	0.061149426
122	0x3e3a2711	0.18178965
123	0x3ea8480e	0.32867473
124	0xbde31b82	-0.11089231
125	0xbe37fc23	-0.17967276
126	0x3decaebe	0.11556767
127	0x3d081e11	0.0332318
128	0x3e5a8b5d	0.21342225
129	0x3ca1c20e	0.019745853
130	0x3cd318ef	0.025768725
131	0xbe44de3e	-0.19225404
132	0xbde77381	-0.113013275
133	0x3da785d0	0.081798196
134	0x3e62cf16	0.2214931
135	0x3da761bd	0.08172939
136	0xbcd60126	-0.026123594
137	0x3c125ed4	0.008933742
138	0xbc942940	-0.018086076
139	0xbdb222ff	-0.08698081
140	0x3e24e01c	0.16101116
141	0x3e10b556	0.14131674
142	0x3dd1f5ce	0.10251962
143	0x3da486bf	0.08033513
144	0xbddd710b	-0.10812577
145	0xbdf1b7f5	-0.11802665
146	0xbdfe1e5b	-0.124081336
147	0x3e4d98f9	0.20077886
148	0x3d356979	0.04429004
149	0xbe23714f	-0.15961193
150	0x3e1a49be	0.15067193
151	0x3d5b327d	0.053514946
152	0xbd75faaa	-0.060053505
153	0x3d14fa2a	0.036371388
154	0x3d4ff448	0.050770074
155	0x3d963cec	0.07335839
156	0xbd6fae33	-0.05851574
157	0x3d9f9098	0.07791251
158	0x3d889563	0.06669118
159	0xbd188ae6	-0.03724184
160	0xbd0c4121	-0.0342418
161	0x3cd11e1c	0.025527053
162	0x3d98f85c	0.07469246
163	0xbd8de1dc	-0.06927845
164	0x3ca6420e	0.02029517
165	0xbdcc5d66	-0.09978752
166	0x3b977d11	0.0046230634
167	0x3df5c244	0.11999944
168	0x3bea00ec	0.007141223
169	0x3d3729fd	0.044717778
170	0xbcda5590	-0.026652128
171	0xbd04e6b1	-0.032446567
172	0x3b7ebf98	0.0038871523
173	0x3bbc51fc	0.005747078
174	0x3daec172	0.085329905
175	0x3c929972	0.017895434
176	0xbbbed4c0	-0.0058237016
177	0xbe86ad7f	-0.26304242
178	0xbd2a5980	-0.04158926
179	0x3daef14e	0.08542119
180	0xbd94af22	-0.072599664
181	0x3d82e215	0.06390778
182	0xbde11ab7	-0.109914236
183	0x3d88063d	0.06641815
184	0xbd4a92f8	-0.049456567
185	0xbe373e92	-0.17894962
186	0x3e6335d7	0.22188507
187	0x3d8c948b	0.0686427
188	0xbe65ed9a	-0.22453919
189	0xbd458fc9	-0.048232827
190	0xbcf32560	-0.029680908
191	0xbe55a675	-0.2086428
192	0x3db70c15	0.08937851
193	0x3be6a288	0.007038418
194	0x3cd95cee	0.02653357
195	0xbd8ff9b9	-0.07030053
196	0xbe0b1ff9	-0.13586415
197	0xbc7f0c22	-0.0155668575
198	0x3ea52c39	0.32260302
199	0xbe09c662	-0.13454583
200	0xbe23c4f2	-0.15993097
201	0x3df8d465	0.12149886
202	0xbbf1fe26	-0.007385033
203	0x3c1f4ae3	0.009722444
204	0x3d8af741	0.06785441
205	0xbc255150	-0.010090187
206	0x3c3548ca	0.011064718
207	0x3da540ee	0.08069025
208	0x3e05bedb	0.13061087
209	0x3dbf37b6	0.09336798
210	0xbc07386d	-0.008253199
211	0x3e53de75	0.2069033
212	0xbdaa3249	-0.083103724
213	0x3d6632c0	0.056200743
214	0x3d69e972	0.057107396
215	0xbdb789db	-0.08961841
216	0x3e007566	0.12544784
217	0xbdbd392d	-0.09239421
218	0x3d75f4a0	0.060047746
219	0x3e49b5f2	0.19698313
220	0xbdc05648	-0.09391457
221	0x3d8e9804	0.069625884
222	0x3d7ec1d7	0.06219658
223	0x3e07667b	0.13222687
224	0x3e5138f2	0.20431879
225	0xbd8ec41b	-0.06970998
226	0x3c53dcdf	0.012931078
227	0xbd5668ee	-0.052346162
228	0xbca91f6f	-0.020644872
229	0x3e09ccb4	0.13456994
230	0x3d9114ea	0.07084067
231	0x3eb50041	0.35351756
232	0xbcae4f32	-0.021277998
233	0x3d108fdc	0.035293445
234	0xbd4583e1	-0.048221473
235	0x3e2b5c23	0.16734366
236	0xbdc94758	-0.09828061
237	0xbd877cbe	-0.066155896
238	0x3e0e723a	0.13910761
239	0x3d73c0fc	0.059510216
240	0x3ced2d0a	0.02895214
241	0x3e132598	0.1436981
242	0xbd3ab538	-0.04558298
243	0x3d3f309f	0.046677228
244	0x3dc2e6c5	0.09516672
245	0x3e8c25e3	0.27372655
246	0x3da3463e	0.07972382
247	0xbe13622a	-0.14392915
248	0x3d9f34a7	0.077737145
249	0xbdd3f544	-0.10349515
250	0x3d82dcca	0.063897684
251	0xbe47da64	-0.19516903
252	0x3e6e5b61	0.23277046
253	0xbde618ef	-0.112352245
254	0xbcdccbc6	-0.026952635
255	0x3b6663cc	0.0035154698

0.bias f4 [100]
0	0xbc674670	-0.014115915
1	0xbc5a4536	-0.013322165
2	0xbcdfb359	-0.0273072
3	0xbaee8ebb	-0.0018200496
4	0xbd21ab01	-0.039469723
5	0x3b4ec415	0.003154998
6	0x3d01b49d	0.031666387
7	0xbc534020	-0.012893707
8	0xbd18b2bc	-0.03727983
9	0x3c8331c6	0.016014945
10	0xbc2b7623	-0.010465178
11	0x3ca56fcf	0.020194916
12	0xbc42ab26	-0.011881625
13	0x3a913b0a	0.0011080217
14	0xbca4772f	-0.020076362
15	0xbc25f1d5	-0.010128458
16	0x3b41694d	0.0029512227
17	0x3ce26be0	0.02763933
18	0xbbbf77de	-0.0058431467
19	0x3bb21550	0.0054346696
20	0xbc43ae0b	-0.011943351
21	0x3d2cd614	0.04219635
22	0xb9c62470	-0.0003779265
23	0x3bd04859	0.0063562808
24	0x3bf36706	0.007428053
25	0x3c3fb056	0.011699757
26	0x3c95d9b5	0.018292287
27	0xbc75ba8d	-0.01499809
28	0x3cd5b538	0.026087388
29	0xbbe622ac	-0.007023176
30	0xbcd5f3cd	-0.02611723
31	0xbc65b83b	-0.014020975
32	0xbbdf9a65	-0.006823825
33	0x3c52f8de	0.012876717
34	0xbce96457	-0.028490229
35	0x3c10127c	0.0087934695
36	0x3c578dd5	0.013156374
37	0xbcecd27e	-0.028908964
38	0x3c95371b	0.018214753
39	0x3d3c9d16	0.046048246
40	0xbc9f3daf	-0.019438593
41	0x3c494db7	0.012286595
42	0x3c874613	0.016512906
43	0x3c51240b	0.012764941
44	0xbc98d71a	-0.018657256
45	0xbc0c40d1	-0.008560375
46	0x3bdcb30e	0.006735212
47	0x3c572db3	0.013133454
48	0x3c1f32be	0.009716688
49	0x3b0f0cb2	0.0021827635
50	0x3c9f1ae7	0.019422008
51	0x3b92fda2	0.004485802
52	0xbc3e1724	-0.011602197
53	0x3cbf073a	0.023318876
54	0xbbb01cbc	-0.005374519
55	0x3cb46769	0.022021966
56	0xbaddad38	-0.0016912585
57	0xbcb68395	-0.02227954
58	0x3a315700	0.0006764978
59	0x3c58b71d	0.013227251
60	0xbbdbcd19	-0.006707799
61	0x3ccaa443	0.02473653
62	0x3bfef3bc	0.0077805202
63	0x3caf5b45	0.021405825
64	0x3cc54818	0.024082229
65	0x3c2ee7b3	0.010675359
66	0x3909ed3e	0.00013153718
67	0x3cde10d7	0.02710764
68	0x3d256203	0.040376674
69	0x3c91f748	0.017818108
70	0x3cc27cc2	0.02374113
71	0xbd060304	-0.03271772
72	0xbc0e59ba	-0.008688385
73	0xb9de59ea	-0.0004241013
74	0x3c4f026e	0.012634857
75	0xbcdc4098	-0.02688627
76	0xbc292c42	-0.010325493
77	0xbb4b3eaa	-0.0031012692
78	0x3ba755d2	0.005106666
79	0x3c2ff20b	0.01073886
80	0x3a179e34	0.0005783767
81	0x3ca7d0c0	0.020485282
82	0xbc111948	-0.008856125
83	0xbc2a1313	-0.010380524
84	0xbbbdbc81	-0.0057902937
85	0x3c95a98b	0.018269321
86	0x3ce23586	0.027613413
87	0x3b98568c	0.004648989
88	0xbc828676	-0.015933257
89	0x3c61de7d	0.0137859555
90	0x3b4ed7ab	0.0031561654
91	0x3b0b45bd	0.0021251284
92	0x3c943c3f	0.018095134
93	0xbbaf718c	-0.005354112
94	0xbbde6617	-0.0067870724
95	0xbb440627	-0.0029910894
96	0x3c90bd51	0.017668398
97	0x3cbdd2c0	0.023171782
98	0xbc6b9fb3	-0.014381337
99	0xbb7ab057	-0.003825208

2.weight f4 [320, 100]
0	0xbce1d304	-0.02756644
1	0xbd6a0754	-0.057135895
2	0xbde8526d	-0.113438465
3	0xbc63a57b	-0.013894434
4	0x3c1dbba4	0.009627257
5	0x3d8c91e7	0.06863766
6	0x3daf16ef	0.08549296
7	0xbd0aef14	-0.03391941
8	0x3da66278	0.0812425
9	0x3da04172	0.07824983
10	0xbda78f9e	-0.0818169
11	0xbd2efb02	-0.04271985
12	0xbd96c9d8	-0.073627174
13	0x3d80ab03	0.06282618
14	0x3dce2476	0.10065548
15	0x3e299043	0.16558938
16	0xbd0a36e8	-0.03374377
17	0x3e42a48d	0.19008084
18	0x3d400355	0.046878178
19	0xbdba6d47	-0.09102874
20	0x3d9cb3cd	0.07651482
21	0xbd9117f8	-0.0708465
22	0x3e2cc25a	0.16871014
23	0x3d5a7fab	0.05334441
24	0x3c210dd2	0.009829955
25	0xbde96baa	-0.113974884
26	0xbdd087c4	-0.10182145
27	0x3ba5ef9e	0.005063965
28	0x3e1a6400	0.1507721
29	0xbdeae7d8	-0.11470002
30	0xbc5ffb66	-0.013670778
31	0x3e3343df	0.1750636
32	0x3d911392	0.07083811
33	0xbdd23e1e	-0.10265754
34	0x3e51179f	0.20419167
35	0x3dc722f5	0.097234644
36	0xbe46192e	-0.19345543
37	0x3e218eb0	0.15777087
38	0x3d39c15d	0.04535042
39	0xbce332eb	-0.02773424
40	0x3d8b8c78	0.06813902
41	0x3d4dd0b4	0.050247863
42	0xbe446997	-0.19180904
43	0x3d9b4ffd	0.07583616
44	0x3d7a77db	0.06114946
45	0x3da979fb	0.08275219
46	0x3d848ec5	0.064725436
47	0xbe71fb55	-0.23631032
48	0x3d8b9abb	0.06816622
49	0xbd87e4a4	-0.066354066
50	0xbc1a5117	-0.009418747
51	0xbe80e010	-0.25170946
52	0x3e1a677f	0.15078543
53	0xbcaa6bae	-0.020803299
54	0xbd35fab4	-0.044428542
55	0x3dacca39	0.084370084
56	0xbd907388	-0.07053286
57	0xbcb0714d	-0.021538401
58	0xbdaa7910	-0.08323872
59	0x3e0c0a30	0.13675761
60	0x39e1868d	0.00043015592
61	0x3d639494	0.055561617
62	0xbde14c0b	-0.11000832
63	0xbcd0f0fa	-0.025505532
64	0xbe1f26aa	-0.15542093
65	0xbe33085d	-0.17483659
66	0x3b927dd4	0.0044705663
67	0xbdcdf53a	-0.10056539
68	0x3d984a23	0.074360155
69	0xbdd5a725	-0.10432271
70	0xbdc01941	-0.09379817
71	0x3bfbe4cd	0.0076871873
72	0xbdccea08	-0.100055754
73	0x3d4739a2	0.048638947
74	0x3e097989	0.13425268
75	0xbe87ab49	-0.26497868
76	0xbe29b74d	-0.1657383
77	0x3d32e6db	0.043677192
78	0x3d9464fc	0.07245824
79	0x3dd62115	0.10455529
80	0x3c9347f6	0.01797865
81	0xbdd909a1	-0.1059754
82	0x3dd8cff2	0.105865374
83	0xbd597568	-0.053090483
84	0xbe3baf29	-0.18328537
85	0xbd9c16b3	-0.07621517
86	0x3d9021f8	0.07037729
87	0x3e058f27	0.1304289
88	0xbda09cbc	-0.07842395
89	0xbd8f8d89	-0.070094176
90	0x3e0108b6	0.12600979
91	0xbe53037f	-0.20606802
92	0xbe017f0c	-0.12646121
93	0xbe23cb8e	-0.15995619
94	0xbdff059b	-0.12452241
95	0xbe24f99d	-0.16110845
96	0xbcdb5df0	-0.026778191
97	0xbca7232a	-0.02040251
98	0xbddc35dc	-0.1075246
99	0x3d3d45aa	0.046209015
100	0x3dae10e6	0.08499317
101	0x3df8fcf9	0.12157626
102	0x3e2d24b6	0.16908535
103	0x3e239509	0.15974821
104	0x3e2b6f4d	0.16741677
105	0x3a3c3478	0.00071794493
106	0xbdced59b	-0.10099336
107	0x3db0bb30	0.08629453
108	0xbd34e501	-0.044163708
109	0xbd0c4acd	-0.034251023
110	0x3d69cf22	0.057082303
111	0xbd223c8a	-0.039608516
112	0x3c0072ec	0.0078398995
113	0x3ea36b0b	0.31917605
114	0x3d484a88	0.048899204
115	0x3d7370f8	0.059433907
116	0xbc8c5550	-0.017130524
117	0x3e062516	0.13100085
118	0xbdc894b4	-0.09793988
119	0x3d0db61b	0.034597497
120	0xbe720510	-0.23634744
121	0x3c86e8a5	0.016468355
122	0x3c010198	0.007873915
123	0xbe2d0e3a	-0.16899958
124	0x3d36b7f1	0.044609014
125	0x3e1e342a	0.15449587
126	0xbd373cab	-0.04473559
127	0xbcb03930	-0.021511644
128	0x3c9cb461	0.01912898
129	0xbcde9efb	-0.027175417
130	0xbdd9cda7	-0.10634928
131	0xbd8ecae6	-0.069722936
132	0xbcb75268	-0.022378162
133	0xbd46ca8b	-0.048533004
134	0xbd9e7853	-0.07737794
135	0xbd004dde	-0.03132426
136	0xbd29ad1d	-0.04142486
137	0x3c8bfa7c	0.017087214
138	0x3d96347e	0.07334231
139	0x3da5490e	0.08070575
140	0x3d057b7e	0.032588474
141	0xbe0a5a77	-0.13511072
142	0x3cd5fdf9	0.02612208
143	0xbe4ff953	-0.20309953
144	0x3d78ee75	0.060774285
145	0xbd2420bd	-0.040070284
146	0x3beff822	0.007323281
147	0xbd4f5165	-0.050614733
148	0xbcb07ebe	-0.02154481
149	0xbe26fab0	-0.16306567
150	0xb9cf6bed	-0.00039562528
151	0x3d4b21a4	0.04959263
152	0x3da720ad	0.08160529
153	0xbd9e8f09	-0.077421255
154	0xbde4fcbb	-0.11181017
155	0xbcb42286	-0.021989118
156	0x3e0fe1e4	0.14051014
157	0xbd901cc2	-0.07036735
158	0x3c7af2c6	0.015316671
159	0x3cb472b9	0.02202736
160	0xbd345ae9	-0.04403201
161	0x3e01fdfc	0.12694544
162	0xbdc58955	-0.09645335
163	0x3d86eec5	0.065885104
164	0xbd5d0b96	-0.053966127
165	0x3e0ca20b	0.1373369
166	0x3d9bda21	0.07609964
167	0x3db6dfeb	0.08929428
168	0xbd8505c3	-0.064952396
169	0x3e5216ba	0.20516482
170	0xbd75bf12	-0.059996672
171	0x3c6da72b	0.014505188
172	0xbd049c29	-0.03237549
173	0x3df7d79c	0.12101671
174	0x3d2d3523	0.042287003
175	0x3d2d0637	0.042242255
176	0xbd960494	-0.07325092
177	0x3d865f40	0.06561136
178	0x3d5a0adf	0.053233024
179	0x3e48f836	0.19625935
180	0xbe8515ad	-0.259931
181	0x3d023a22	0.03179372
182	0xbd2f7e74	-0.042845204
183	0xbca0a704	-0.01961089
184	0x3e353a19	0.17697944
185	0x3dd4480f	0.103653066
186	0xbdcf4517	-0.101206
187	0xbd3ded56	-0.04636892
188	0xbdbe8ef8	-0.09304613
189	0x3d3bf1e2	0.045884974
190	0xbde99221	-0.11404825
191	0x3da24068	0.07922441
192	0x3cc3bb24	0.023892947
193	0x3e40e7bc	0.188384
194	0x3d75e86c	0.060036108
195	0xbdef4704	-0.11683467
196	0xbe0306d6	-0.12795576
197	0x3dcb3e02	0.099239364
198	0x3dd8fb14	0.10594764
199	0x3d2e7635	0.0425932
200	0xbd7aef54	-0.061263397
201	0xbd97c7bd	-0.07411144
202	0xbc4b6e41	-0.012416423
203	0xbcf1ebf5	-0.029531458
204	0xbdb42c8d	-0.0879756
205	0xbe6daaab	-0.23209636
206	0xbd832f5d	-0.06405518
207	0x3dd4df03	0.103940986
208	0x3dd3c511	0.10340322
209	0x3d8ef5f1	0.06980503
210	0xbdfc83bf	-0.12329816
211	0x3d1b4790	0.037910044
212	0x3e608a6f	0.21927808
213	0xbe5090c0	-0.20367718
214	0x3d93f14c	0.07223758
215	0x3dbee893	0.09321704
216	0x3e540a0a	0.20706955
217	0xbe3023ec	-0.17201203
218	0xbcabdac6	-0.020978343
219	0xbe3ef8ee	-0.18649647
220	0x3e16c8c2	0.1472502
221	0xbdb06225	-0.086124696
222	0x3d67c5a4	0.05658497
223	0xbe52fb50	-0.2060368
224	0x3c7c5e01	0.015403272
225	0xbd1a6c69	-0.037701044
226	0x3dd744d1	0.105111726
227	0xbe2e8beb	-0.17045562
228	0xbdaf19e5	-0.08549861
229	0xbe01c4f5	-0.1267279
230	0xbd079f48	-0.033110887
231	0xbdd7514f	-0.10513555
232	0xbdbd9c54	-0.09258333
233	0x3de8da14	0.1136972
234	0x3e4d7fef	0.20068334
235	0xbe92a452	-0.2864099
236	0xbd47b24a	-0.048754014
237	0x3de5a776	0.11213581
238	0x3d29d14c	0.041459367
239	0x3deba083	0.115052246
240	0x3e469308	0.19392025
241	0xbb13ba67	-0.0022541524
242	0x3dab8c2e	0.083763465
243	0xbcd2679b	-0.025684169
244	0x3e84dd2e	0.25949997
245	0x3da9e257	0.08295124
246	0x3dc6a89c	0.097001284
247	0x3ddb5995	0.10710446
248	0xbe0ccf67	-0.13750993
249	0x3d79358a	0.060842074
250	0x3cc004d8	0.02343981
251	0x3cb74d45	0.022375712
252	0x3d937987	0.07200914
253	0xbc4a9b87	-0.012366182
254	0xbcaa13d1	-0.020761402
255	0x3ca4f417	0.020135922

2.bias f4 [320]
0	0xbb0add4e	-0.0021189037
1	0xbacc7da9	-0.0015601414
2	0x3a458e64	0.00075361715
3	0xba8f016e	-0.001091046
4	0xbacb2647	-0.0015499078
5	0xb999eb86	-0.00029357913
6	0x3a50254d	0.00079401286
7	0xba376abb	-0.00069968
8	0x39e01dde	0.00042746862
9	0x3a48f7e3	0.00076663325
10	0xbaa36c99	-0.0012468278
11	0x38d444ca	0.00010121761
12	0xbad456c3	-0.0016200173
13	0xbb4a51ef	-0.003087159
14	0xbb5ffc56	-0.0034177504
15	0x3a17ceaa	0.0005790988
16	0xba8c1caf	-0.0010689701
17	0x39819402	0.00024715072
18	0xbb28f9f9	-0.002578376
19	0xba8bfc09	-0.0010679971
20	0xba51df4c	-0.0008005991
21	0xba25bea2	-0.0006322657
22	0x3a49424a	0.00076774193
23	0x39a59690	0.0003158343
24	0xb91069fa	-0.0001377239
25	0xb99d636a	-0.00030019443
26	0xba770b07	-0.00094239454
27	0xba19bd2d	-0.0005864676
28	0x397a1887	0.00023850995
29	0xbaa150fe	-0.0012307463
30	0xb996d3ff	-0.0002876818
31	0xbab56478	-0.0013839146
32	0x3a8ae3e4	0.0010596481
33	0xbb09cb78	-0.0021025818
34	0xba8b0218	-0.0010605482
35	0xba98a27d	-0.0011645105
36	0x3896a9f4	7.1842136e-05
37	0x390e3275	0.00013560972
38	0xbacb3a4b	-0.0015505044
39	0xba3440f2	-0.00068761327
40	0xbb29f61c	-0.0025934046
41	0xbaca4645	-0.0015432319
42	0xb87c83ff	-6.0204413e-05
43	0xba45d9f6	-0.00075474323
44	0xb9c95f7f	-0.00038408858
45	0x39c7feb5	0.0003814601
46	0xbb310a5b	-0.002701423
47	0xbaac7a4d	-0.0013159007
48	0xba02e7d0	-0.0004993649
49	0xb9fdbcf9	-0.00048396716
50	0xbac4bd80	-0.0015010089
51	0xbb31a675	-0.0027107273
52	0xbaa975e9	-0.0012928817
53	0xba712a69	-0.000919974
54	0xbb02cf3a	-0.0019959942
55	0xbace3eba	-0.0015735247
56	0xba8f8512	-0.0010949692
57	0x389fb3aa	7.615176e-05
58	0xba8a85fe	-0.0010568497
59	0xba52ad71	-0.0008036709
60	0xbb3ae1f7	-0.0028516033
61	0x3a5c16b2	0.0008395716
62	0xb8bb260b	-8.923941e-05
63	0xba984ac0	-0.0011618957
64	0xba978b84	-0.0011561965
65	0x3a9b5617	0.0011851218
66	0x3a50e829	0.0007969165
67	0xb853e82f	-5.0522558e-05
68	0x3a582d7a	0.00082465226
69	0xb9de3865	-0.00042385157
70	0xbab8955a	-0.0014082596
71	0x3a1c62e6	0.0005965665
72	0xbb307295	-0.0026923765
73	0xba8e9858	-0.0010879142
74	0xb9fb85ab	-0.0004797404
75	0xbaab92bd	-0.0013089996
76	0xb93b47fb	-0.00017860525
77	0xbb10af8e	-0.0022077295
78	0xbac62ce7	-0.0015119583
79	0xbae62d2d	-0.0017561071
80	0xb9ff139a	-0.00048651994
81	0xbaf53124	-0.0018706662
82	0x3901aa3f	0.0001236582
83	0xba43f400	-0.00074750185
84	0xba7a7842	-0.0009554663
85	0xbaf85bed	-0.0018948294
86	0x3a88b6fc	0.001043051
87	0xb91d2c4e	-0.00014989192
88	0xbb7f6a37	-0.003897322
89	0xba2bd16f	-0.00065543404
90	0xb9fad83e	-0.0004784483
91	0x37b1c85b	2.1193342e-05
92	0xbb30a409	-0.0026953241
93	0xbb131286	-0.002244146
94	0xb9d4b945	-0.00040573828
95	0x39c749a5	0.00038011107
96	0xba0da9cf	-0.00054040266
97	0xba92a22f	-0.001118725
98	0x39e7fdec	0.0004424894
99	0xba5f907e	-0.0008528306
100	0xba5545c8	-0.00081357034
101	0xba8b09fa	-0.0010607832
102	0x3955bc17	0.00020383332
103	0xba76266e	-0.0009389882
104	0xbbaa2848	-0.00519279
105	0x390569e8	0.00012723322
106	0x3a96cbb2	0.0011504798
107	0xb9fde9ab	-0.00048430017
108	0xb9a11a4d	-0.0003072791
109	0xbb1c4a4f	-0.0023848002
110	0x3a8f3006	0.0010924346
111	0xbaa1b492	-0.0012337139
112	0xbad640ac	-0.0016346178
113	0xbaab7b4c	-0.001308301
114	0xba920a8e	-0.0011142062
115	0x3a8e0064	0.0010833857
116	0x3a950844	0.0011370261
117	0x3a22cbfa	0.00062102044
118	0x380aa95f	3.3059503e-05
119	0xba4a9ea2	-0.00077293266
120	0xbab2a184	-0.0013628458
121	0xb9c8809d	-0.00038242797
122	0xbb0eae92	-0.0021771532
123	0xbaa808cd	-0.0012820006
124	0x3a0b1c49	0.0005306644
125	0x3b109173	0.002205935
126	0xbaec9060	-0.0018048398
127	0xbac6cc42	-0.0015167075
128	0xb97ee17e	-0.0002430733
129	0x38f1495f	0.00011505442
130	0x38b35ab7	8.552282e-05
131	0xbaebf7eb	-0.0018002962
132	0xba907982	-0.001102254
133	0xbb132869	-0.0022454506
134	0xbaa52287	-0.0012598791
135	0xbb348c41	-0.0027549418
136	0xb9638caf	-0.00021700816
137	0x39e346e8	0.00043349643
138	0xba3f49d6	-0.0007297074
139	0xbafb7143	-0.0019183535
140	0x3a0f7cce	0.00054736144
141	0xbb3b546a	-0.002858425
142	0xbacdf0a3	-0.0015711974
143	0x3a49a97f	0.00076927984
144	0xba23f991	-0.0006255145
145	0x3a169173	0.00057437195
146	0x3891e15d	6.956116e-05
147	0xbb3e591a	-0.0029044808
148	0x3a71aad7	0.00092188775
149	0xbb1e711c	-0.0024176305
150	0xbb00f797	-0.0019678825
151	0xbb11499b	-0.0022169116
152	0xb717bf9f	-9.044917e-06
153	0xb9ce6b66	-0.000393714
154	0xb9acb812	-0.0003294354
155	0xb9fc5ac2	-0.00048132805
156	0x3765ccec	1.3697176e-05
157	0xba6e2199	-0.0009083986
158	0xba8a10fc	-0.0010533626
159	0xbb19e7a8	-0.0023484025
160	0xba383971	-0.00070276024
161	0xbaf0f321	-0.0018383005
162	0xb9bac008	-0.0003561976
163	0xba2c4022	-0.0006570836
164	0x3a8150e9	0.0009866032
165	0xba2ccb5a	-0.0006591581
166	0x39b63a85	0.00034757346
167	0xbada7447	-0.0016666733
168	0x3ab25a07	0.0013607153
169	0x3a45ebb7	0.0007550078
170	0xbab88137	-0.0014076595
171	0x399f443c	0.00030377682
172	0x3a5e77fe	0.0008486508
173	0xba99a35a	-0.0011721656
174	0x39870da2	0.00025759364
175	0xb95ceb42	-0.00021068475
176	0xb9270f23	-0.00015932
177	0x3a34c00e	0.00068950735
178	0x38d32ff6	0.000100701975
179	0x3add094b	0.0016863731
180	0xbb05d7ba	-0.0020422773
181	0xb9ca884e	-0.00038629997
182	0xba1104e9	-0.00055320427
183	0xba20710d	-0.00061203615
184	0x3a14ec6f	0.00056809833
185	0xbab65e6d	-0.0013913639
186	0xba7262a6	-0.0009246267
187	0x39d53d89	0.00040672373
188	0xbac0b8f8	-0.0014703562
189	0xba8a9408	-0.0010572681
190	0xbb09e00b	-0.002103808
191	0xba6d6652	-0.00090560794
192	0x3a829719	0.0009963244
193	0xb9d87206	-0.00041283685
194	0xb793c905	-1.7617373e-05
195	0xbb0821ee	-0.0020772177
196	0xba517c78	-0.00079912646
197	0xbb1daf26	-0.0024060695
198	0xb99aa39a	-0.00029495062
199	0x37b7b566	2.189977e-05
200	0xbb35e4a0	-0.002775468
201	0xb9d888dd	-0.00041300702
202	0x38a27e05	7.748235e-05
203	0xbb26cd4f	-0.0025451963
204	0xb9711f14	-0.00022995129
205	0x3a550b37	0.00081269763
206	0x3aa974a4	0.0012928438
207	0xbb0ad10d	-0.0021181733
208	0xb98e5d7c	-0.00027154002
209	0x3a4de6c8	0.00078545185
210	0x3a2b3002	0.0006530286
211	0xbad11094	-0.0015950375
212	0x38a4c4b5	7.856769e-05
213	0x3ac7fc3d	0.0015257668
214	0xba6e148a	-0.000908204
215	0xbb636134	-0.0034695389
216	0x3a7edaa5	0.00097219116
217	0xbaaed22b	-0.0013337781
218	0xb9282bd8	-0.00016038062
219	0xba46ef96	-0.00075888017
220	0x3a1c1da9	0.00059553474
221	0xba337d60	-0.00068469904
222	0xbb0f4dce	-0.0021866444
223	0xba267373	-0.0006349601
224	0xb9b9111b	-0.00035298694
225	0xbaebc00b	-0.001798631
226	0x39fc0441	0.00048068355
227	0xba30d058	-0.0006744913
228	0x393f084d	0.00018218272
229	0xbaedd288	-0.0018144408
230	0xba980a8c	-0.0011599823
231	0xbb3fb94e	-0.0029254737
232	0xb88f75e6	-6.840732e-05
233	0xba390629	-0.0007058108
234	0x3a4e5809	0.00078713946
235	0xbab9572c	-0.0014140359
236	0xb71a41e9	-9.194461e-06
237	0xbb36f0cf	-0.002791453
238	0xb932e926	-0.00017062257
239	0xbb277b1a	-0.0025555552
240	0x39efd5c8	0.00045744912
241	0xba44d1b1	-0.0007508053
242	0x3aeaba14	0.0017908239
243	0xba81ba17	-0.0009897378
244	0xbb445df0	-0.0029963218
245	0x3adea4c6	0.0016986362
246	0xbb14c7f8	-0.0022702198
247	0x3abb6597	0.0014297244
248	0xbb31982d	-0.002709876
249	0xb9338d27	-0.00017123354
250	0xbacf286a	-0.0015804891
251	0xb9422758	-0.00018515938
252	0x3a016e8d	0.0004937433
253	0x383d88b0	4.518841e-05
254	0xbad05e59	-0.0015897258
255	0xb9acc34a	-0.00032951898
